…
{'loss': 0.869, 'grad_norm': 0.30990949273109436, 'learning_rate': 2.164652180971358e-05, 'epoch': 0.8391608391608392}
{'loss': 0.9027, 'grad_norm': 0.29356318712234497, 'learning_rate': 1.1249826472884572e-05, 'epoch': 0.8857808857808858}
{'loss': 0.8962, 'grad_norm': 0.3051948547363281, 'learning_rate': 4.099910684818698e-06, 'epoch': 0.9324009324009324}
{'loss': 0.8948, 'grad_norm': 0.33440250158309937, 'learning_rate': 4.583423888055105e-07, 'epoch': 0.9790209790209791}
{'train_runtime': 820.1269, 'train_samples_per_second': 16.7, 'train_steps_per_second': 0.522, 'train_loss': 1.2459271299504788, 'epoch': 0.9976689976689976}
Starcoder2ForCausalLM(
  (model): Starcoder2Model(
    (embed_tokens): Embedding(49152, 6144)
    (layers): ModuleList(
      (0-39): 40 x Starcoder2DecoderLayer(
        (self_attn): Starcoder2SdpaAttention(
          (q_proj): lora.Linear4bit(
            (base_layer): Linear4bit(in_features=6144, out_features=6144, bias=True)
            (lora_dropout): ModuleDict(
              (default): Identity()
            )
            (lora_A): ModuleDict(
              (default): Linear(in_features=6144, out_features=16, bias=False)
            )
            (lora_B): ModuleDict(
              (default): Linear(in_features=16, out_features=6144, bias=False)
            )
            (lora_embedding_A): ParameterDict()
            (lora_embedding_B): ParameterDict()
          )
          (k_proj): lora.Linear4bit(
            (base_layer): Linear4bit(in_features=6144, out_features=512, bias=True)
            (lora_dropout): ModuleDict(
              (default): Identity()
            )
            (lora_A): ModuleDict(
              (default): Linear(in_features=6144, out_features=16, bias=False)
            )
            (lora_B): ModuleDict(
              (default): Linear(in_features=16, out_features=512, bias=False)
            )
            (lora_embedding_A): ParameterDict()
            (lora_embedding_B): ParameterDict()
          )
          (v_proj): lora.Linear4bit(
            (base_layer): Linear4bit(in_features=6144, out_features=512, bias=True)
            (lora_dropout): ModuleDict(
              (default): Identity()
            )
            (lora_A): ModuleDict(
              (default): Linear(in_features=6144, out_features=16, bias=False)
            )
            (lora_B): ModuleDict(
              (default): Linear(in_features=16, out_features=512, bias=False)
            )
            (lora_embedding_A): ParameterDict()
            (lora_embedding_B): ParameterDict()
          )
          (o_proj): lora.Linear4bit(
            (base_layer): Linear4bit(in_features=6144, out_features=6144, bias=True)
            (lora_dropout): ModuleDict(
              (default): Identity()
            )
            (lora_A): ModuleDict(
              (default): Linear(in_features=6144, out_features=16, bias=False)
            )
            (lora_B): ModuleDict(
              (default): Linear(in_features=16, out_features=6144, bias=False)
            )
            (lora_embedding_A): ParameterDict()
            (lora_embedding_B): ParameterDict()
          )
          (rotary_emb): Starcoder2RotaryEmbedding()
        )
        (mlp): Starcoder2MLP(
          (c_fc): Linear4bit(in_features=6144, out_features=24576, bias=True)
          (c_proj): Linear4bit(in_features=24576, out_features=6144, bias=True)
          (act): PytorchGELUTanh()
        )
        (input_layernorm): LayerNorm((6144,), eps=1e-05, elementwise_affine=True)
        (post_attention_layernorm): LayerNorm((6144,), eps=1e-05, elementwise_affine=True)
      )
    )
    (norm): LayerNorm((6144,), eps=1e-05, elementwise_affine=True)
  )
  (lm_head): Linear(in_features=6144, out_features=49152, bias=False)
)
Saving the last checkpoint of the model
saving the model peft layer
Starcoder2ForCausalLM(
  (model): Starcoder2Model(
    (embed_tokens): Embedding(49152, 6144)
    (layers): ModuleList(
      (0-39): 40 x Starcoder2DecoderLayer(
        (self_attn): Starcoder2SdpaAttention(
          (q_proj): lora.Linear4bit(
            (base_layer): Linear4bit(in_features=6144, out_features=6144, bias=True)
            (lora_dropout): ModuleDict(
              (default): Identity()
            )
            (lora_A): ModuleDict(
              (default): Linear(in_features=6144, out_features=16, bias=False)
            )
            (lora_B): ModuleDict(
              (default): Linear(in_features=16, out_features=6144, bias=False)
            )
            (lora_embedding_A): ParameterDict()
            (lora_embedding_B): ParameterDict()
          )
          (k_proj): lora.Linear4bit(
            (base_layer): Linear4bit(in_features=6144, out_features=512, bias=True)
            (lora_dropout): ModuleDict(
              (default): Identity()
            )
            (lora_A): ModuleDict(
              (default): Linear(in_features=6144, out_features=16, bias=False)
            )
            (lora_B): ModuleDict(
              (default): Linear(in_features=16, out_features=512, bias=False)
            )
            (lora_embedding_A): ParameterDict()
            (lora_embedding_B): ParameterDict()
          )
          (v_proj): lora.Linear4bit(
            (base_layer): Linear4bit(in_features=6144, out_features=512, bias=True)
            (lora_dropout): ModuleDict(
              (default): Identity()
            )
            (lora_A): ModuleDict(
              (default): Linear(in_features=6144, out_features=16, bias=False)
            )
            (lora_B): ModuleDict(
              (default): Linear(in_features=16, out_features=512, bias=False)
            )
            (lora_embedding_A): ParameterDict()
            (lora_embedding_B): ParameterDict()
          )
          (o_proj): lora.Linear4bit(
            (base_layer): Linear4bit(in_features=6144, out_features=6144, bias=True)
            (lora_dropout): ModuleDict(
              (default): Identity()
            )
            (lora_A): ModuleDict(
              (default): Linear(in_features=6144, out_features=16, bias=False)
            )
            (lora_B): ModuleDict(
              (default): Linear(in_features=16, out_features=6144, bias=False)
            )
            (lora_embedding_A): ParameterDict()
            (lora_embedding_B): ParameterDict()
          )
          (rotary_emb): Starcoder2RotaryEmbedding()
        )
        (mlp): Starcoder2MLP(
          (c_fc): Linear4bit(in_features=6144, out_features=24576, bias=True)
          (c_proj): Linear4bit(in_features=24576, out_features=6144, bias=True)
          (act): PytorchGELUTanh()
        )
        (input_layernorm): LayerNorm((6144,), eps=1e-05, elementwise_affine=True)
        (post_attention_layernorm): LayerNorm((6144,), eps=1e-05, elementwise_affine=True)
      )
    )
    (norm): LayerNorm((6144,), eps=1e-05, elementwise_affine=True)
  )
  (lm_head): Linear(in_features=6144, out_features=49152, bias=False)
)
Saving the last checkpoint of the model
saving the model peft layer
Starcoder2ForCausalLM(
  (model): Starcoder2Model(
    (embed_tokens): Embedding(49152, 6144)
    (layers): ModuleList(
      (0-39): 40 x Starcoder2DecoderLayer(
        (self_attn): Starcoder2SdpaAttention(
          (q_proj): lora.Linear4bit(
            (base_layer): Linear4bit(in_features=6144, out_features=6144, bias=True)
            (lora_dropout): ModuleDict(
              (default): Identity()
            )
            (lora_A): ModuleDict(
              (default): Linear(in_features=6144, out_features=16, bias=False)
            )
            (lora_B): ModuleDict(
              (default): Linear(in_features=16, out_features=6144, bias=False)
            )
            (lora_embedding_A): ParameterDict()
            (lora_embedding_B): ParameterDict()
          )
          (k_proj): lora.Linear4bit(
            (base_layer): Linear4bit(in_features=6144, out_features=512, bias=True)
            (lora_dropout): ModuleDict(
              (default): Identity()
            )
            (lora_A): ModuleDict(
              (default): Linear(in_features=6144, out_features=16, bias=False)
            )
            (lora_B): ModuleDict(
              (default): Linear(in_features=16, out_features=512, bias=False)
            )
            (lora_embedding_A): ParameterDict()
            (lora_embedding_B): ParameterDict()
          )
          (v_proj): lora.Linear4bit(
            (base_layer): Linear4bit(in_features=6144, out_features=512, bias=True)
            (lora_dropout): ModuleDict(
              (default): Identity()
            )
            (lora_A): ModuleDict(
              (default): Linear(in_features=6144, out_features=16, bias=False)
            )
            (lora_B): ModuleDict(
              (default): Linear(in_features=16, out_features=512, bias=False)
            )
            (lora_embedding_A): ParameterDict()
            (lora_embedding_B): ParameterDict()
          )
          (o_proj): lora.Linear4bit(
            (base_layer): Linear4bit(in_features=6144, out_features=6144, bias=True)
            (lora_dropout): ModuleDict(
              (default): Identity()
            )
            (lora_A): ModuleDict(
              (default): Linear(in_features=6144, out_features=16, bias=False)
            )
            (lora_B): ModuleDict(
              (default): Linear(in_features=16, out_features=6144, bias=False)
            )
            (lora_embedding_A): ParameterDict()
            (lora_embedding_B): ParameterDict()
          )
          (rotary_emb): Starcoder2RotaryEmbedding()
        )
        (mlp): Starcoder2MLP(
          (c_fc): Linear4bit(in_features=6144, out_features=24576, bias=True)
          (c_proj): Linear4bit(in_features=24576, out_features=6144, bias=True)
          (act): PytorchGELUTanh()
        )
        (input_layernorm): LayerNorm((6144,), eps=1e-05, elementwise_affine=True)
        (post_attention_layernorm): LayerNorm((6144,), eps=1e-05, elementwise_affine=True)
      )
    )
    (norm): LayerNorm((6144,), eps=1e-05, elementwise_affine=True)
  )
  (lm_head): Linear(in_features=6144, out_features=49152, bias=False)
)
Saving the last checkpoint of the model
saving the model peft layer
Starcoder2ForCausalLM(
  (model): Starcoder2Model(
    (embed_tokens): Embedding(49152, 6144)
    (layers): ModuleList(
      (0-39): 40 x Starcoder2DecoderLayer(
        (self_attn): Starcoder2SdpaAttention(
          (q_proj): lora.Linear4bit(
            (base_layer): Linear4bit(in_features=6144, out_features=6144, bias=True)
            (lora_dropout): ModuleDict(
              (default): Identity()
            )
            (lora_A): ModuleDict(
              (default): Linear(in_features=6144, out_features=16, bias=False)
            )
            (lora_B): ModuleDict(
              (default): Linear(in_features=16, out_features=6144, bias=False)
            )
            (lora_embedding_A): ParameterDict()
            (lora_embedding_B): ParameterDict()
          )
          (k_proj): lora.Linear4bit(
            (base_layer): Linear4bit(in_features=6144, out_features=512, bias=True)
            (lora_dropout): ModuleDict(
              (default): Identity()
            )
            (lora_A): ModuleDict(
              (default): Linear(in_features=6144, out_features=16, bias=False)
            )
            (lora_B): ModuleDict(
              (default): Linear(in_features=16, out_features=512, bias=False)
            )
            (lora_embedding_A): ParameterDict()
            (lora_embedding_B): ParameterDict()
          )
          (v_proj): lora.Linear4bit(
            (base_layer): Linear4bit(in_features=6144, out_features=512, bias=True)
            (lora_dropout): ModuleDict(
              (default): Identity()
            )
            (lora_A): ModuleDict(
              (default): Linear(in_features=6144, out_features=16, bias=False)
            )
            (lora_B): ModuleDict(
              (default): Linear(in_features=16, out_features=512, bias=False)
            )
            (lora_embedding_A): ParameterDict()
            (lora_embedding_B): ParameterDict()
          )
          (o_proj): lora.Linear4bit(
            (base_layer): Linear4bit(in_features=6144, out_features=6144, bias=True)
            (lora_dropout): ModuleDict(
              (default): Identity()
            )
            (lora_A): ModuleDict(
              (default): Linear(in_features=6144, out_features=16, bias=False)
            )
            (lora_B): ModuleDict(
              (default): Linear(in_features=16, out_features=6144, bias=False)
            )
            (lora_embedding_A): ParameterDict()
            (lora_embedding_B): ParameterDict()
          )
          (rotary_emb): Starcoder2RotaryEmbedding()
        )
        (mlp): Starcoder2MLP(
          (c_fc): Linear4bit(in_features=6144, out_features=24576, bias=True)
          (c_proj): Linear4bit(in_features=24576, out_features=6144, bias=True)
          (act): PytorchGELUTanh()
        )
        (input_layernorm): LayerNorm((6144,), eps=1e-05, elementwise_affine=True)
        (post_attention_layernorm): LayerNorm((6144,), eps=1e-05, elementwise_affine=True)
      )
    )
    (norm): LayerNorm((6144,), eps=1e-05, elementwise_affine=True)
  )
  (lm_head): Linear(in_features=6144, out_features=49152, bias=False)
)
Saving the last checkpoint of the model
saving the model peft layer
/u/choprahetarth/.conda/envs/scoder_2/lib/python3.10/site-packages/huggingface_hub/file_download.py:1132: FutureWarning: `resume_download` is deprecated and will be removed in version 1.0.0. Downloads always resume when possible. If you want to force a new download, use `force_download=True`.
…
