…
{'loss': 1.2813, 'grad_norm': 0.7075889706611633, 'learning_rate': 2.164652180971358e-05, 'epoch': 0.8391608391608392}
{'loss': 1.3109, 'grad_norm': 0.7417185306549072, 'learning_rate': 1.1249826472884572e-05, 'epoch': 0.8857808857808858}
{'loss': 1.2982, 'grad_norm': 0.6721455454826355, 'learning_rate': 4.099910684818698e-06, 'epoch': 0.9324009324009324}
{'loss': 1.2876, 'grad_norm': 0.7108369469642639, 'learning_rate': 4.583423888055105e-07, 'epoch': 0.9790209790209791}
{'train_runtime': 423.1571, 'train_samples_per_second': 32.366, 'train_steps_per_second': 1.011, 'train_loss': 1.871300117991795, 'epoch': 0.9976689976689976}
Starcoder2ForCausalLM(
  (model): Starcoder2Model(
    (embed_tokens): Embedding(49152, 3072)
    (layers): ModuleList(
      (0-29): 30 x Starcoder2DecoderLayer(
        (self_attn): Starcoder2SdpaAttention(
          (q_proj): lora.Linear4bit(
            (base_layer): Linear4bit(in_features=3072, out_features=3072, bias=True)
            (lora_dropout): ModuleDict(
              (default): Identity()
            )
            (lora_A): ModuleDict(
              (default): Linear(in_features=3072, out_features=16, bias=False)
            )
            (lora_B): ModuleDict(
              (default): Linear(in_features=16, out_features=3072, bias=False)
            )
            (lora_embedding_A): ParameterDict()
            (lora_embedding_B): ParameterDict()
          )
          (k_proj): lora.Linear4bit(
            (base_layer): Linear4bit(in_features=3072, out_features=256, bias=True)
            (lora_dropout): ModuleDict(
              (default): Identity()
            )
            (lora_A): ModuleDict(
              (default): Linear(in_features=3072, out_features=16, bias=False)
            )
            (lora_B): ModuleDict(
              (default): Linear(in_features=16, out_features=256, bias=False)
            )
            (lora_embedding_A): ParameterDict()
            (lora_embedding_B): ParameterDict()
          )
          (v_proj): lora.Linear4bit(
            (base_layer): Linear4bit(in_features=3072, out_features=256, bias=True)
            (lora_dropout): ModuleDict(
              (default): Identity()
            )
            (lora_A): ModuleDict(
              (default): Linear(in_features=3072, out_features=16, bias=False)
            )
            (lora_B): ModuleDict(
              (default): Linear(in_features=16, out_features=256, bias=False)
            )
            (lora_embedding_A): ParameterDict()
            (lora_embedding_B): ParameterDict()
          )
          (o_proj): lora.Linear4bit(
            (base_layer): Linear4bit(in_features=3072, out_features=3072, bias=True)
            (lora_dropout): ModuleDict(
              (default): Identity()
            )
            (lora_A): ModuleDict(
              (default): Linear(in_features=3072, out_features=16, bias=False)
            )
            (lora_B): ModuleDict(
              (default): Linear(in_features=16, out_features=3072, bias=False)
            )
            (lora_embedding_A): ParameterDict()
            (lora_embedding_B): ParameterDict()
          )
          (rotary_emb): Starcoder2RotaryEmbedding()
        )
        (mlp): Starcoder2MLP(
          (c_fc): Linear4bit(in_features=3072, out_features=12288, bias=True)
          (c_proj): Linear4bit(in_features=12288, out_features=3072, bias=True)
          (act): PytorchGELUTanh()
        )
        (input_layernorm): LayerNorm((3072,), eps=1e-05, elementwise_affine=True)
        (post_attention_layernorm): LayerNorm((3072,), eps=1e-05, elementwise_affine=True)
      )
    )
    (norm): LayerNorm((3072,), eps=1e-05, elementwise_affine=True)
  )
  (lm_head): Linear(in_features=3072, out_features=49152, bias=False)
)
Saving the last checkpoint of the model
saving the model peft layer
Starcoder2ForCausalLM(
  (model): Starcoder2Model(
    (embed_tokens): Embedding(49152, 3072)
    (layers): ModuleList(
      (0-29): 30 x Starcoder2DecoderLayer(
        (self_attn): Starcoder2SdpaAttention(
          (q_proj): lora.Linear4bit(
            (base_layer): Linear4bit(in_features=3072, out_features=3072, bias=True)
            (lora_dropout): ModuleDict(
              (default): Identity()
            )
            (lora_A): ModuleDict(
              (default): Linear(in_features=3072, out_features=16, bias=False)
            )
            (lora_B): ModuleDict(
              (default): Linear(in_features=16, out_features=3072, bias=False)
            )
            (lora_embedding_A): ParameterDict()
            (lora_embedding_B): ParameterDict()
          )
          (k_proj): lora.Linear4bit(
            (base_layer): Linear4bit(in_features=3072, out_features=256, bias=True)
            (lora_dropout): ModuleDict(
              (default): Identity()
            )
            (lora_A): ModuleDict(
              (default): Linear(in_features=3072, out_features=16, bias=False)
            )
            (lora_B): ModuleDict(
              (default): Linear(in_features=16, out_features=256, bias=False)
            )
            (lora_embedding_A): ParameterDict()
            (lora_embedding_B): ParameterDict()
          )
          (v_proj): lora.Linear4bit(
            (base_layer): Linear4bit(in_features=3072, out_features=256, bias=True)
            (lora_dropout): ModuleDict(
              (default): Identity()
            )
            (lora_A): ModuleDict(
              (default): Linear(in_features=3072, out_features=16, bias=False)
            )
            (lora_B): ModuleDict(
              (default): Linear(in_features=16, out_features=256, bias=False)
            )
            (lora_embedding_A): ParameterDict()
            (lora_embedding_B): ParameterDict()
          )
          (o_proj): lora.Linear4bit(
            (base_layer): Linear4bit(in_features=3072, out_features=3072, bias=True)
            (lora_dropout): ModuleDict(
              (default): Identity()
            )
            (lora_A): ModuleDict(
              (default): Linear(in_features=3072, out_features=16, bias=False)
            )
            (lora_B): ModuleDict(
              (default): Linear(in_features=16, out_features=3072, bias=False)
            )
            (lora_embedding_A): ParameterDict()
            (lora_embedding_B): ParameterDict()
          )
          (rotary_emb): Starcoder2RotaryEmbedding()
        )
        (mlp): Starcoder2MLP(
          (c_fc): Linear4bit(in_features=3072, out_features=12288, bias=True)
          (c_proj): Linear4bit(in_features=12288, out_features=3072, bias=True)
          (act): PytorchGELUTanh()
        )
        (input_layernorm): LayerNorm((3072,), eps=1e-05, elementwise_affine=True)
        (post_attention_layernorm): LayerNorm((3072,), eps=1e-05, elementwise_affine=True)
      )
    )
    (norm): LayerNorm((3072,), eps=1e-05, elementwise_affine=True)
  )
  (lm_head): Linear(in_features=3072, out_features=49152, bias=False)
)Starcoder2ForCausalLM(
  (model): Starcoder2Model(
    (embed_tokens): Embedding(49152, 3072)
    (layers): ModuleList(
      (0-29): 30 x Starcoder2DecoderLayer(
        (self_attn): Starcoder2SdpaAttention(
          (q_proj): lora.Linear4bit(
            (base_layer): Linear4bit(in_features=3072, out_features=3072, bias=True)
            (lora_dropout): ModuleDict(
              (default): Identity()
            )
            (lora_A): ModuleDict(
              (default): Linear(in_features=3072, out_features=16, bias=False)
            )
            (lora_B): ModuleDict(
              (default): Linear(in_features=16, out_features=3072, bias=False)
            )
            (lora_embedding_A): ParameterDict()
            (lora_embedding_B): ParameterDict()
          )
          (k_proj): lora.Linear4bit(
            (base_layer): Linear4bit(in_features=3072, out_features=256, bias=True)
            (lora_dropout): ModuleDict(
              (default): Identity()
            )
            (lora_A): ModuleDict(
              (default): Linear(in_features=3072, out_features=16, bias=False)
            )
            (lora_B): ModuleDict(
              (default): Linear(in_features=16, out_features=256, bias=False)
            )
            (lora_embedding_A): ParameterDict()
            (lora_embedding_B): ParameterDict()
          )
          (v_proj): lora.Linear4bit(
            (base_layer): Linear4bit(in_features=3072, out_features=256, bias=True)
            (lora_dropout): ModuleDict(
              (default): Identity()
            )
            (lora_A): ModuleDict(
              (default): Linear(in_features=3072, out_features=16, bias=False)
            )
            (lora_B): ModuleDict(
              (default): Linear(in_features=16, out_features=256, bias=False)
            )
            (lora_embedding_A): ParameterDict()
            (lora_embedding_B): ParameterDict()
          )
          (o_proj): lora.Linear4bit(
            (base_layer): Linear4bit(in_features=3072, out_features=3072, bias=True)
            (lora_dropout): ModuleDict(
              (default): Identity()
            )
            (lora_A): ModuleDict(
              (default): Linear(in_features=3072, out_features=16, bias=False)
            )
            (lora_B): ModuleDict(
              (default): Linear(in_features=16, out_features=3072, bias=False)
            )
            (lora_embedding_A): ParameterDict()
            (lora_embedding_B): ParameterDict()
          )
          (rotary_emb): Starcoder2RotaryEmbedding()
        )
        (mlp): Starcoder2MLP(
          (c_fc): Linear4bit(in_features=3072, out_features=12288, bias=True)
          (c_proj): Linear4bit(in_features=12288, out_features=3072, bias=True)
          (act): PytorchGELUTanh()
        )
        (input_layernorm): LayerNorm((3072,), eps=1e-05, elementwise_affine=True)
        (post_attention_layernorm): LayerNorm((3072,), eps=1e-05, elementwise_affine=True)
      )
    )
    (norm): LayerNorm((3072,), eps=1e-05, elementwise_affine=True)
  )
  (lm_head): Linear(in_features=3072, out_features=49152, bias=False)
)

Saving the last checkpoint of the model
saving the model peft layerStarcoder2ForCausalLM(
  (model): Starcoder2Model(
    (embed_tokens): Embedding(49152, 3072)
    (layers): ModuleList(
      (0-29): 30 x Starcoder2DecoderLayer(
        (self_attn): Starcoder2SdpaAttention(
          (q_proj): lora.Linear4bit(
            (base_layer): Linear4bit(in_features=3072, out_features=3072, bias=True)
            (lora_dropout): ModuleDict(
              (default): Identity()
            )
            (lora_A): ModuleDict(
              (default): Linear(in_features=3072, out_features=16, bias=False)
            )
            (lora_B): ModuleDict(
              (default): Linear(in_features=16, out_features=3072, bias=False)
            )
            (lora_embedding_A): ParameterDict()
            (lora_embedding_B): ParameterDict()
          )
          (k_proj): lora.Linear4bit(
            (base_layer): Linear4bit(in_features=3072, out_features=256, bias=True)
            (lora_dropout): ModuleDict(
              (default): Identity()
            )
            (lora_A): ModuleDict(
              (default): Linear(in_features=3072, out_features=16, bias=False)
            )
            (lora_B): ModuleDict(
              (default): Linear(in_features=16, out_features=256, bias=False)
            )
            (lora_embedding_A): ParameterDict()
            (lora_embedding_B): ParameterDict()
          )
          (v_proj): lora.Linear4bit(
            (base_layer): Linear4bit(in_features=3072, out_features=256, bias=True)
            (lora_dropout): ModuleDict(
              (default): Identity()
            )
            (lora_A): ModuleDict(
              (default): Linear(in_features=3072, out_features=16, bias=False)
            )
            (lora_B): ModuleDict(
              (default): Linear(in_features=16, out_features=256, bias=False)
            )
            (lora_embedding_A): ParameterDict()
            (lora_embedding_B): ParameterDict()
          )
          (o_proj): lora.Linear4bit(
            (base_layer): Linear4bit(in_features=3072, out_features=3072, bias=True)
            (lora_dropout): ModuleDict(
              (default): Identity()
            )
            (lora_A): ModuleDict(
              (default): Linear(in_features=3072, out_features=16, bias=False)
            )
            (lora_B): ModuleDict(
              (default): Linear(in_features=16, out_features=3072, bias=False)
            )
            (lora_embedding_A): ParameterDict()
            (lora_embedding_B): ParameterDict()
          )
          (rotary_emb): Starcoder2RotaryEmbedding()
        )
        (mlp): Starcoder2MLP(
          (c_fc): Linear4bit(in_features=3072, out_features=12288, bias=True)
          (c_proj): Linear4bit(in_features=12288, out_features=3072, bias=True)
          (act): PytorchGELUTanh()
        )
        (input_layernorm): LayerNorm((3072,), eps=1e-05, elementwise_affine=True)
        (post_attention_layernorm): LayerNorm((3072,), eps=1e-05, elementwise_affine=True)
      )
    )
    (norm): LayerNorm((3072,), eps=1e-05, elementwise_affine=True)
  )
  (lm_head): Linear(in_features=3072, out_features=49152, bias=False)
)

Saving the last checkpoint of the model
saving the model peft layer
Saving the last checkpoint of the model
saving the model peft layer
/u/choprahetarth/.conda/envs/scoder_2/lib/python3.10/site-packages/huggingface_hub/file_download.py:1132: FutureWarning: `resume_download` is deprecated and will be removed in version 1.0.0. Downloads always resume when possible. If you want to force a new download, use `force_download=True`.
…
