…
{'loss': 0.8688, 'grad_norm': 0.3891716003417969, 'learning_rate': 5.892424390377626e-07, 'epoch': 0.9559895074322355}
{'loss': 0.8612, 'grad_norm': 0.47395721077919006, 'learning_rate': 3.2894398805177753e-07, 'epoch': 0.9676479160594579}
{'loss': 0.9006, 'grad_norm': 0.4929943382740021, 'learning_rate': 1.4381878183221675e-07, 'epoch': 0.9793063246866802}
{'loss': 0.8196, 'grad_norm': 0.4234371781349182, 'learning_rate': 3.4146992848854695e-08, 'epoch': 0.9909647333139027}
{'train_runtime': 3025.2035, 'train_samples_per_second': 4.535, 'train_steps_per_second': 0.567, 'train_loss': 1.0458239674915726, 'epoch': 0.9997085397843194}
Starcoder2ForCausalLM(
  (model): Starcoder2Model(
    (embed_tokens): Embedding(49152, 6144)
    (layers): ModuleList(
      (0-39): 40 x Starcoder2DecoderLayer(
        (self_attn): Starcoder2SdpaAttention(
          (q_proj): lora.Linear8bitLt(
            (base_layer): Linear8bitLt(in_features=6144, out_features=6144, bias=True)
            (lora_dropout): ModuleDict(
              (default): Identity()
            )
            (lora_A): ModuleDict(
              (default): Linear(in_features=6144, out_features=32, bias=False)
            )
            (lora_B): ModuleDict(
              (default): Linear(in_features=32, out_features=6144, bias=False)
            )
            (lora_embedding_A): ParameterDict()
            (lora_embedding_B): ParameterDict()
          )
          (k_proj): lora.Linear8bitLt(
            (base_layer): Linear8bitLt(in_features=6144, out_features=512, bias=True)
            (lora_dropout): ModuleDict(
              (default): Identity()
            )
            (lora_A): ModuleDict(
              (default): Linear(in_features=6144, out_features=32, bias=False)
            )
            (lora_B): ModuleDict(
              (default): Linear(in_features=32, out_features=512, bias=False)
            )
            (lora_embedding_A): ParameterDict()
            (lora_embedding_B): ParameterDict()
          )
          (v_proj): lora.Linear8bitLt(
            (base_layer): Linear8bitLt(in_features=6144, out_features=512, bias=True)
            (lora_dropout): ModuleDict(
              (default): Identity()
            )
            (lora_A): ModuleDict(
              (default): Linear(in_features=6144, out_features=32, bias=False)
            )
            (lora_B): ModuleDict(
              (default): Linear(in_features=32, out_features=512, bias=False)
            )
            (lora_embedding_A): ParameterDict()
            (lora_embedding_B): ParameterDict()
          )
          (o_proj): lora.Linear8bitLt(
            (base_layer): Linear8bitLt(in_features=6144, out_features=6144, bias=True)
            (lora_dropout): ModuleDict(
              (default): Identity()
            )
            (lora_A): ModuleDict(
              (default): Linear(in_features=6144, out_features=32, bias=False)
            )
            (lora_B): ModuleDict(
              (default): Linear(in_features=32, out_features=6144, bias=False)
            )
            (lora_embedding_A): ParameterDict()
            (lora_embedding_B): ParameterDict()
          )
          (rotary_emb): Starcoder2RotaryEmbedding()
        )
        (mlp): Starcoder2MLP(
          (c_fc): Linear8bitLt(in_features=6144, out_features=24576, bias=True)
          (c_proj): Linear8bitLt(in_features=24576, out_features=6144, bias=True)
          (act): PytorchGELUTanh()
        )
        (input_layernorm): LayerNorm((6144,), eps=1e-05, elementwise_affine=True)
        (post_attention_layernorm): LayerNorm((6144,), eps=1e-05, elementwise_affine=True)
      )
    )
    (norm): LayerNorm((6144,), eps=1e-05, elementwise_affine=True)
  )
  (lm_head): Linear(in_features=6144, out_features=49152, bias=False)
)
Saving the last checkpoint of the model
saving the model peft layer
Starcoder2ForCausalLM(
  (model): Starcoder2Model(
    (embed_tokens): Embedding(49152, 6144)
    (layers): ModuleList(
      (0-39): 40 x Starcoder2DecoderLayer(
        (self_attn): Starcoder2SdpaAttention(
          (q_proj): lora.Linear8bitLt(
            (base_layer): Linear8bitLt(in_features=6144, out_features=6144, bias=True)
            (lora_dropout): ModuleDict(
              (default): Identity()
            )
            (lora_A): ModuleDict(
              (default): Linear(in_features=6144, out_features=32, bias=False)
            )
            (lora_B): ModuleDict(
              (default): Linear(in_features=32, out_features=6144, bias=False)
            )
            (lora_embedding_A): ParameterDict()
            (lora_embedding_B): ParameterDict()
          )
          (k_proj): lora.Linear8bitLt(
            (base_layer): Linear8bitLt(in_features=6144, out_features=512, bias=True)
            (lora_dropout): ModuleDict(
              (default): Identity()
            )
            (lora_A): ModuleDict(
              (default): Linear(in_features=6144, out_features=32, bias=False)
            )
            (lora_B): ModuleDict(
              (default): Linear(in_features=32, out_features=512, bias=False)
            )
            (lora_embedding_A): ParameterDict()
            (lora_embedding_B): ParameterDict()
          )
          (v_proj): lora.Linear8bitLt(
            (base_layer): Linear8bitLt(in_features=6144, out_features=512, bias=True)
            (lora_dropout): ModuleDict(
              (default): Identity()
            )
            (lora_A): ModuleDict(
              (default): Linear(in_features=6144, out_features=32, bias=False)
            )
            (lora_B): ModuleDict(
              (default): Linear(in_features=32, out_features=512, bias=False)
            )
            (lora_embedding_A): ParameterDict()
            (lora_embedding_B): ParameterDict()
          )
          (o_proj): lora.Linear8bitLt(
            (base_layer): Linear8bitLt(in_features=6144, out_features=6144, bias=True)
            (lora_dropout): ModuleDict(
              (default): Identity()
            )
            (lora_A): ModuleDict(
              (default): Linear(in_features=6144, out_features=32, bias=False)
            )
            (lora_B): ModuleDict(
              (default): Linear(in_features=32, out_features=6144, bias=False)
            )
            (lora_embedding_A): ParameterDict()
            (lora_embedding_B): ParameterDict()
          )
          (rotary_emb): Starcoder2RotaryEmbedding()
        )
        (mlp): Starcoder2MLP(
          (c_fc): Linear8bitLt(in_features=6144, out_features=24576, bias=True)
          (c_proj): Linear8bitLt(in_features=24576, out_features=6144, bias=True)
          (act): PytorchGELUTanh()
        )
        (input_layernorm): LayerNorm((6144,), eps=1e-05, elementwise_affine=True)
        (post_attention_layernorm): LayerNorm((6144,), eps=1e-05, elementwise_affine=True)
      )
    )
    (norm): LayerNorm((6144,), eps=1e-05, elementwise_affine=True)
  )
  (lm_head): Linear(in_features=6144, out_features=49152, bias=False)
)
Saving the last checkpoint of the model
saving the model peft layer
Starcoder2ForCausalLM(
  (model): Starcoder2Model(
    (embed_tokens): Embedding(49152, 6144)
    (layers): ModuleList(
      (0-39): 40 x Starcoder2DecoderLayer(
        (self_attn): Starcoder2SdpaAttention(
          (q_proj): lora.Linear8bitLt(
            (base_layer): Linear8bitLt(in_features=6144, out_features=6144, bias=True)
            (lora_dropout): ModuleDict(
              (default): Identity()
            )
            (lora_A): ModuleDict(
              (default): Linear(in_features=6144, out_features=32, bias=False)
            )
            (lora_B): ModuleDict(
              (default): Linear(in_features=32, out_features=6144, bias=False)
            )
            (lora_embedding_A): ParameterDict()
            (lora_embedding_B): ParameterDict()
          )
          (k_proj): lora.Linear8bitLt(
            (base_layer): Linear8bitLt(in_features=6144, out_features=512, bias=True)
            (lora_dropout): ModuleDict(
              (default): Identity()
            )
            (lora_A): ModuleDict(
              (default): Linear(in_features=6144, out_features=32, bias=False)
            )
            (lora_B): ModuleDict(
              (default): Linear(in_features=32, out_features=512, bias=False)
            )
            (lora_embedding_A): ParameterDict()
            (lora_embedding_B): ParameterDict()
          )
          (v_proj): lora.Linear8bitLt(
            (base_layer): Linear8bitLt(in_features=6144, out_features=512, bias=True)
            (lora_dropout): ModuleDict(
              (default): Identity()
            )
            (lora_A): ModuleDict(
              (default): Linear(in_features=6144, out_features=32, bias=False)
            )
            (lora_B): ModuleDict(
              (default): Linear(in_features=32, out_features=512, bias=False)
            )
            (lora_embedding_A): ParameterDict()
            (lora_embedding_B): ParameterDict()
          )
          (o_proj): lora.Linear8bitLt(
            (base_layer): Linear8bitLt(in_features=6144, out_features=6144, bias=True)
            (lora_dropout): ModuleDict(
              (default): Identity()
            )
            (lora_A): ModuleDict(
              (default): Linear(in_features=6144, out_features=32, bias=False)
            )
            (lora_B): ModuleDict(
              (default): Linear(in_features=32, out_features=6144, bias=False)
            )
            (lora_embedding_A): ParameterDict()
            (lora_embedding_B): ParameterDict()
          )
          (rotary_emb): Starcoder2RotaryEmbedding()
        )
        (mlp): Starcoder2MLP(
          (c_fc): Linear8bitLt(in_features=6144, out_features=24576, bias=True)
          (c_proj): Linear8bitLt(in_features=24576, out_features=6144, bias=True)
          (act): PytorchGELUTanh()
        )
        (input_layernorm): LayerNorm((6144,), eps=1e-05, elementwise_affine=True)
        (post_attention_layernorm): LayerNorm((6144,), eps=1e-05, elementwise_affine=True)
      )
    )
    (norm): LayerNorm((6144,), eps=1e-05, elementwise_affine=True)
  )
  (lm_head): Linear(in_features=6144, out_features=49152, bias=False)
)
Saving the last checkpoint of the model
saving the model peft layer
Starcoder2ForCausalLM(
  (model): Starcoder2Model(
    (embed_tokens): Embedding(49152, 6144)
    (layers): ModuleList(
      (0-39): 40 x Starcoder2DecoderLayer(
        (self_attn): Starcoder2SdpaAttention(
          (q_proj): lora.Linear8bitLt(
            (base_layer): Linear8bitLt(in_features=6144, out_features=6144, bias=True)
            (lora_dropout): ModuleDict(
              (default): Identity()
            )
            (lora_A): ModuleDict(
              (default): Linear(in_features=6144, out_features=32, bias=False)
            )
            (lora_B): ModuleDict(
              (default): Linear(in_features=32, out_features=6144, bias=False)
            )
            (lora_embedding_A): ParameterDict()
            (lora_embedding_B): ParameterDict()
          )
          (k_proj): lora.Linear8bitLt(
            (base_layer): Linear8bitLt(in_features=6144, out_features=512, bias=True)
            (lora_dropout): ModuleDict(
              (default): Identity()
            )
            (lora_A): ModuleDict(
              (default): Linear(in_features=6144, out_features=32, bias=False)
            )
            (lora_B): ModuleDict(
              (default): Linear(in_features=32, out_features=512, bias=False)
            )
            (lora_embedding_A): ParameterDict()
            (lora_embedding_B): ParameterDict()
          )
          (v_proj): lora.Linear8bitLt(
            (base_layer): Linear8bitLt(in_features=6144, out_features=512, bias=True)
            (lora_dropout): ModuleDict(
              (default): Identity()
            )
            (lora_A): ModuleDict(
              (default): Linear(in_features=6144, out_features=32, bias=False)
            )
            (lora_B): ModuleDict(
              (default): Linear(in_features=32, out_features=512, bias=False)
            )
            (lora_embedding_A): ParameterDict()
            (lora_embedding_B): ParameterDict()
          )
          (o_proj): lora.Linear8bitLt(
            (base_layer): Linear8bitLt(in_features=6144, out_features=6144, bias=True)
            (lora_dropout): ModuleDict(
              (default): Identity()
            )
            (lora_A): ModuleDict(
              (default): Linear(in_features=6144, out_features=32, bias=False)
            )
            (lora_B): ModuleDict(
              (default): Linear(in_features=32, out_features=6144, bias=False)
            )
            (lora_embedding_A): ParameterDict()
            (lora_embedding_B): ParameterDict()
          )
          (rotary_emb): Starcoder2RotaryEmbedding()
        )
        (mlp): Starcoder2MLP(
          (c_fc): Linear8bitLt(in_features=6144, out_features=24576, bias=True)
          (c_proj): Linear8bitLt(in_features=24576, out_features=6144, bias=True)
          (act): PytorchGELUTanh()
        )
        (input_layernorm): LayerNorm((6144,), eps=1e-05, elementwise_affine=True)
        (post_attention_layernorm): LayerNorm((6144,), eps=1e-05, elementwise_affine=True)
      )
    )
    (norm): LayerNorm((6144,), eps=1e-05, elementwise_affine=True)
  )
  (lm_head): Linear(in_features=6144, out_features=49152, bias=False)
)
Saving the last checkpoint of the model
saving the model peft layer
/u/choprahetarth/.conda/envs/scoder_2/lib/python3.10/site-packages/huggingface_hub/file_download.py:1132: FutureWarning: `resume_download` is deprecated and will be removed in version 1.0.0. Downloads always resume when possible. If you want to force a new download, use `force_download=True`.
…
